backend/ai/trained_gnn_model.pth (torch, 6285 bytes, 6 tensors)

conv1.bias f4 [16]
0	0x00000000	0.0
1	0x00000000	0.0
2	0xbdcede45	-0.10100988
3	0x3e393468	0.18086398
4	0x00000000	0.0
5	0x00000000	0.0
6	0x3e35ddec	0.17760438
7	0x3e67f8ca	0.22653499
8	0x00000000	0.0
9	0x00000000	0.0
10	0x3e541048	0.20709336
11	0x00000000	0.0
12	0x3e6882a5	0.22706087
13	0x00000000	0.0
14	0x00000000	0.0
15	0x00000000	0.0

conv1.lin.weight f4 [16, 8]
0	0x3edc42f6	0.43019837
1	0x3e1f87b0	0.15579104
2	0xbed8c7b0	-0.4233985
3	0x3eb12938	0.3460176
4	0xbe0cdfc8	-0.13757241
5	0xbe444350	-0.19166303
6	0xbed47f80	-0.41503525
7	0xbefe8150	-0.49708033
8	0x3e127d18	0.14305532
9	0xbddfafc0	-0.109221935
10	0x3e47555c	0.19466156
11	0xbed21700	-0.41033173
12	0x3ebe0fd6	0.37121457
13	0xbebbeaf2	-0.36702687
14	0xbdb0d148	-0.08633667
15	0x3dd5e1f0	0.10443485
16	0x3e2099f9	0.15683736
17	0x3e9aba6e	0.3022036
18	0x3eb56e2d	0.3543562
19	0xbefd9f97	-0.4953582
20	0x3cc7d2f4	0.024392582
21	0xbea27ce5	-0.31735912
22	0xbe203589	-0.15645422
23	0xbef3d3db	-0.4762257
24	0x3f237de8	0.6386399
25	0xbe4127a1	-0.18862773
26	0x3ee775e1	0.45207122
27	0x3ebb94c5	0.3663694
28	0x3eb0e86f	0.34552333
29	0xbdc0a16e	-0.0940579
30	0x3f22cf7e	0.6359786
31	0x3e947dd2	0.29002243
32	0x3d83ba38	0.06432003
33	0xbee199ea	-0.4406274
34	0x3e56ee84	0.20989424
35	0xbd999f00	-0.0750103
36	0xbe6a8f44	-0.22906214
37	0x3edbe3ec	0.42947328
38	0x3de44cb0	0.111474395
39	0xbe8da386	-0.2766382
40	0xbe819252	-0.25306946
41	0xbcc39b80	-0.02387786
42	0x3e8ef0c4	0.27918065
43	0xbe02d554	-0.1277669
44	0xbe921132	-0.28528744
45	0xbe2f54ac	-0.17122144
46	0xbebf404c	-0.37353742
47	0x3e369888	0.17831624
48	0x3f106b40	0.5641365
49	0xbe95f4b2	-0.2928825
50	0x3e968965	0.294017
51	0x3edf8cff	0.4366226
52	0x3e892b11	0.2679067
53	0xbb439596	-0.00298438
54	0x3ee0aea1	0.4388323
55	0x3ee16764	0.44024193
56	0x3ed3bba5	0.413541
57	0x3e0df46e	0.13862774
58	0x3dc0efc5	0.094207324
59	0x3e8f4efa	0.27989942
60	0x3e0d93de	0.13825938
61	0x3d9e4831	0.07728613
62	0x3f0bd337	0.54619163
63	0x3f28003d	0.65625364
64	0xbd4abf20	-0.049498677
65	0xbde54538	-0.11194843
66	0x3bef1480	0.007296145
67	0xbcf490a0	-0.029854119
68	0x3df62e60	0.12020564
69	0x3e0f7ac8	0.14011681
70	0xbee88384	-0.45412838
71	0xbe3cf284	-0.18451887
72	0x3ed795cc	0.42106473
73	0x3e4773c0	0.19477749
74	0xbccbb9a0	-0.024868786
75	0xbe9a5808	-0.30145288
76	0xbe9c9f42	-0.30590254
77	0xbee550fa	-0.44788343
78	0xbe26e48c	-0.16298121
79	0x3e2ce790	0.16885209
80	0x3f06d152	0.5266315
81	0x3edfd7eb	0.4371942
82	0xbe6ef8ac	-0.23337048
83	0xbdbc7647	-0.09202247
84	0x3e04194e	0.12900278
85	0x3f302517	0.68806595
86	0x3e8f6b57	0.2801158
87	0x3d9f3bf2	0.077751055
88	0x3e53d27c	0.20685762
89	0xbe4302e8	-0.19044077
90	0xbea5b28c	-0.32362783
91	0x3ebad9e4	0.36494362
92	0xbe68ceac	-0.22735089
93	0xbdcd4728	-0.100233376
94	0xbefeab7e	-0.49740213
95	0x3eab5552	0.33463532
96	0x3f1b211f	0.60597414
97	0x3ed17e3a	0.40916616
98	0xbdf8b599	-0.12144012
99	0xbe8844b9	-0.2661493
100	0xbe373bff	-0.1789398
101	0x3f1985a5	0.5996955
102	0x3eef2c73	0.467136
103	0x3f25d52d	0.64778405
104	0x3e861c56	0.26193494
105	0x3e01954c	0.12654608
106	0xbba07180	-0.0048963428
107	0xbec2b086	-0.38025302
108	0xbedb556c	-0.4283861
109	0xbeef7302	-0.46767431
110	0x3e5197e4	0.20468098
111	0xbe7b6028	-0.245484
112	0xbdce1528	-0.10062629
113	0xbe935450	-0.28775263
114	0xbdba98d0	-0.09111178
115	0xbeb42e86	-0.35191745
116	0xbea74640	-0.32670784
117	0x3e29d600	0.16585541
118	0xbe182a20	-0.1485982
119	0x3e9e0a34	0.3086716
120	0xbe24410c	-0.16040438
121	0xbebbcb10	-0.36678362
122	0xbdb4ac68	-0.088219464
123	0xbe7830d0	-0.2423737
124	0xbe1ca460	-0.15297079
125	0xbef3b5fc	-0.4759978
126	0x3e8f3acc	0.27974546
127	0xbeb23a76	-0.34810227

conv2.bias f4 [32]
0	0x00000000	0.0
1	0x3e67fc92	0.22654942
2	0x3e1d95f6	0.15389237
3	0xbdad6e8b	-0.0846835
4	0x00000000	0.0
5	0x3e546dbc	0.20744985
6	0xbda89c64	-0.08232954
7	0x3d82900b	0.0637513
8	0xbde70910	-0.112810254
9	0xbd745378	-0.059649915
10	0x00000000	0.0
11	0xbdaa8d51	-0.08327735
12	0x3dd5172e	0.10404812
13	0x00000000	0.0
14	0x3e6a1ce7	0.22862588
15	0x00000000	0.0
16	0x00000000	0.0
17	0x00000000	0.0
18	0x3e5039c3	0.20334534
19	0x3e535a8f	0.20640014
20	0xbde51258	-0.111851394
21	0x3e60dd7e	0.21959493
22	0x3e57aad0	0.21061254
23	0x00000000	0.0
24	0x3e622679	0.22084989
25	0x3e62e680	0.22158241
26	0xbd40856c	-0.04700224
27	0xbd9acffc	-0.07559201
28	0xbd8045a7	-0.06263285
29	0x00000000	0.0
30	0xbd74535c	-0.05964981
31	0xbd4e51f1	-0.050371114

conv2.lin.weight f4 [32, 16]
0	0x3e0a6246	0.13514051
1	0x3e11441e	0.14186141
2	0xbe589b67	-0.21153031
3	0xbe1eb762	-0.15499642
4	0xbd5a9ae0	-0.053370357
5	0xbd846b50	-0.06465781
6	0xbe78161f	-0.24227189
7	0x3cee9cc0	0.029127479
8	0x3d0fede0	0.035138965
9	0xbd375de8	-0.04476729
10	0x3d48c2a8	0.049013764
11	0xbe0f7e87	-0.1401311
12	0x3dbc7148	0.09201294
13	0x3e088a16	0.13333926
14	0xbe3eb32c	-0.18623036
15	0xbeb37eb7	-0.35057613
16	0x3e3d80e6	0.18506202
17	0x3dacb814	0.084335476
18	0xbdbbef1f	-0.09176468
19	0x3f1401f4	0.5781548
20	0xbe23bb33	-0.1598938
21	0x3e74a57e	0.23891255
22	0x3ed7899c	0.42097175
23	0xbd7cfab1	-0.061762515
24	0x3e697e62	0.22802117
25	0xbea67140	-0.32508278
26	0xbb6a2c51	-0.003573198
27	0xbd716dd0	-0.058942616
28	0xbc49921d	-0.0123029025
29	0x3eb0d6ef	0.3453898
30	0xbd913c34	-0.07091561
31	0x3e0fcc4c	0.14042777
32	0xbea1a263	-0.31569204
33	0x3e5069da	0.20352879
34	0xbde1080e	-0.109878644
35	0xbdde2fa6	-0.10848932
36	0x3d53c0e0	0.05169761
37	0x3e2f64d6	0.1712831
38	0x3eefc894	0.46832716
39	0xbd669d89	-0.05630258
40	0xbe322929	-0.17398514
41	0x3d8b3694	0.06797519
42	0x3e83f2e0	0.25771236
43	0x3e0b319e	0.13593146
44	0x3eb4487c	0.3521155
45	0xbda42fec	-0.08016953
46	0x3e49233e	0.1964235
47	0x3e8576cb	0.26067194
48	0xbdbd2504	-0.09235576
49	0x3e80c99b	0.25153813
50	0x3db0c377	0.08631032
51	0x3e7adfb1	0.24499394
52	0xbe4dbcb4	-0.20091516
53	0xbe32c727	-0.17458783
54	0xbe270de7	-0.16313897
55	0xbd158e4a	-0.03651265
56	0x3e594b96	0.2122024
57	0xbe4eaca2	-0.20183042
58	0x3e3c7805	0.18405159
59	0xbe01bf78	-0.12670696
60	0x3e34cb1a	0.17655602
61	0xbc898240	-0.01678574
62	0xbe9e96b3	-0.3097435
63	0xbe4735d5	-0.19454129
64	0xbe83035b	-0.25588498
65	0x3e338ebe	0.1753492
66	0xbe72c3ae	-0.23707458
67	0xbcf150c0	-0.02945745
68	0x3d9c3950	0.07628119
69	0xbe468a43	-0.1938868
70	0x3dd0dfe8	0.10198957
71	0xbeb0c063	-0.3452178
72	0xbe818557	-0.25297043
73	0xbea4069e	-0.320363
74	0xbddb045a	-0.10694189
75	0xbe03e3c6	-0.12879857
76	0x3d4f5db8	0.050626487
77	0xbd85e474	-0.065377146
78	0x3e2a301a	0.16619912
79	0x3ea5f52b	0.3241361
80	0x3e01e572	0.12685183
81	0xbe0ea1a8	-0.13928854
82	0xbe705ae8	-0.23472178
83	0x3eb32468	0.34988713
84	0xbe335ffa	-0.17517081
85	0x3e383b9e	0.17991492
86	0x3eec819d	0.46192637
87	0x3eba95ae	0.36442322
88	0x3ea9da35	0.3317429
89	0x3eabee77	0.33580372
90	0x3ea3b87b	0.31976685
91	0xbe83e5b8	-0.257612
92	0x3f0c7416	0.54864633
93	0xbe2bc92b	-0.16775958
94	0xbe2b02a0	-0.1670022
95	0x3e97791d	0.2958459
96	0x3e8c4173	0.27393684
97	0x3ddac7ec	0.10682663
98	0xbd4f88e1	-0.050667647
99	0xbec19194	-0.3780638
100	0xbd165310	-0.03670031
101	0x3ead9ed3	0.33910236
102	0x3c3004e5	0.010743354
103	0xbd5cdbcb	-0.05392055
104	0xbd965afc	-0.07341573
105	0xbdfc8b9c	-0.12331316
106	0x3e045bbd	0.1292562
107	0x3cb29c70	0.02180311
108	0x3e15641d	0.14588971
109	0xbd802924	-0.06257847
110	0x3e1e2d92	0.15447071
111	0x3e15704c	0.14593619
112	0x3d66edc0	0.05637908
113	0x3e637ece	0.22216341
114	0x3e12f2fa	0.143505
115	0x3ed40e5f	0.41417214
116	0x3e8b29cf	0.27180335
117	0xbdb924e8	-0.090402424
118	0xbe569b2b	-0.2095763
119	0x3e321f34	0.17394716
120	0xbb4a3d00	-0.0030859113
121	0xbdbcdb94	-0.09221569
122	0x3d9a3d69	0.07531244
123	0x3c8838c0	0.016628623
124	0x3ec297ba	0.38006383
125	0x3de1b988	0.110217154
126	0xbe008ed1	-0.1255448
127	0xbe14e11c	-0.14538997
128	0xbdb34de0	-0.08755088
129	0xbe0bedd4	-0.13664943
130	0x3e73b6a7	0.23800145
131	0x3d930cd0	0.07180178
132	0x3ea374c1	0.31925014
133	0x3a93ff00	0.0011291206
134	0xbd327817	-0.043571558
135	0xb88e1435	-6.7748515e-05
136	0xbeab582b	-0.33465704
137	0x3d0150b8	0.03157112
138	0xbdde0db8	-0.108424604
139	0xbe4afa7b	-0.19822113
140	0xbec61e84	-0.38695157
141	0x3ea04075	0.31299177
142	0x3e932e41	0.28746226
143	0x3e27cb2a	0.16386095
144	0x3eacbcd7	0.33737823
145	0xbe12eb0b	-0.14347474
146	0xbdf73a08	-0.120716155
147	0x3d97fc7e	0.07421206
148	0xbd6f4610	-0.058416426
149	0xbd8e16d4	-0.06937948
150	0xbeb42a10	-0.3518834
151	0x3d10bcdd	0.035336364
152	0xbe5aca31	-0.21366192
153	0x3c52a7e0	0.012857407
154	0x3e91f2e5	0.28505626
155	0xbddee1d0	-0.10882914
156	0xbe2f3165	-0.17108686
157	0x3e5a6c2e	0.2133033
158	0xbe051acd	-0.12998505
159	0xbcf8ba40	-0.030362248
160	0x3ea90653	0.33012637
161	0xbe146d25	-0.1449476
162	0xbe8180ca	-0.2529357
163	0xbe4a9cd8	-0.19786394
164	0xbdc8bf4c	-0.09802112
165	0xbe2bc972	-0.16776064
166	0xbe3bdf94	-0.18347007
167	0x3e123e58	0.14281595
168	0x3d761898	0.06008205
169	0xbde7bfd4	-0.11315885
170	0xbe8ca2d0	-0.27467966
171	0xbde3fb9e	-0.111319765
172	0xbe18cb64	-0.14921337
173	0xbdeba0e4	-0.11505297
174	0xbea34d3c	-0.31894863
175	0x3d9bfcc0	0.076165676
176	0xbe84ffca	-0.25976402
177	0xbe8cfa4b	-0.27534708
178	0xbec03da6	-0.37547034
179	0x3da9f4b3	0.08298626
180	0xbe59f4fa	-0.21284857
181	0xbe156e88	-0.14592946
182	0x3e5ff99c	0.21872562
183	0x3e0ba242	0.13636115
184	0x3e4f96fe	0.20272443
185	0xbeabe109	-0.33570126
186	0xbe783632	-0.24239424
187	0xbe08ac70	-0.1334703
188	0x3e847302	0.25868994
189	0x3d142598	0.036168665
190	0xbe876244	-0.26442158
191	0x3b111700	0.0022138953
192	0xbe8c97aa	-0.2745946
193	0xbd9ea514	-0.0774633
194	0xbe2e29d5	-0.17008145
195	0x3edaa7c2	0.42706114
196	0x3de045f8	0.109508455
197	0xbd7c8430	-0.0616495
198	0x3e3b84ae	0.18312332
199	0x3d110d02	0.035412796
200	0x3e0e3ec0	0.13891125
201	0x3e0f359c	0.13985294
202	0x3e7e98b3	0.24862938
203	0xbe0d1d44	-0.13780695
204	0x3ee568d0	0.44806528
205	0xbd5111f0	-0.051042497
206	0xbe0cf29c	-0.13764423
207	0x3e62bffa	0.22143546
208	0x3e938a81	0.28816608
209	0x3eb424a5	0.35184208
210	0x3dd68390	0.10474312
211	0xbdf6d562	-0.12052418
212	0x3e37e066	0.17956695
213	0x3e9b4e6d	0.30333272
214	0xbeb18cc9	-0.34677723
215	0xbd336850	-0.043800652
216	0xbe76e5da	-0.24111119
217	0x3d86f05c	0.06588814
218	0x3e15bbd4	0.14622432
219	0xbd9595ec	-0.07303986
220	0xbcf24c00	-0.029577255
221	0x3e22f51e	0.15913817
222	0xbd736418	-0.05942163
223	0xbe98042e	-0.2969069
224	0x3e90d70f	0.28289077
225	0xbe363825	-0.17794855
226	0x3d544263	0.051821124
227	0x3e8b039b	0.27151188
228	0xbcae0f20	-0.021247447
229	0xbeaa4848	-0.3325827
230	0x3ecee370	0.40407896
231	0x3d98c24e	0.07458936
232	0xbe3bc65b	-0.18337385
233	0x3dacfe48	0.08446938
234	0x3bd19465	0.006395864
235	0xbe2751d5	-0.1633981
236	0x3ddcf5d4	0.107890755
237	0xbe080283	-0.13282208
238	0xbe17336f	-0.14765714
239	0xbdc34600	-0.09534836
240	0x3dbc2b90	0.091879964
241	0xbe927bed	-0.28610173
242	0xbe5b2287	-0.2139989
243	0x3ba90bc0	0.0051588714
244	0x3d496468	0.04916802
245	0x3e47f382	0.19526485
246	0xbe7e4fd7	-0.24835144
247	0x3de71f90	0.11285317
248	0x3e4dc772	0.20095614
249	0x3e490692	0.19631413
250	0xbea89af5	-0.32930723
251	0xbe0a27cd	-0.13491745
252	0xbe9b9916	-0.30390233
253	0xbe651a2a	-0.22373262
254	0x3e49a63a	0.19692317
255	0xbd583cb0	-0.05279225

fc.weight f4 [2, 32]
0	0xbc8a4078	-0.016876444
1	0xbea7c50c	-0.32767522
2	0xbe9fd981	-0.3122063
3	0xbd508d55	-0.050916035
4	0x3df5b222	0.11996867
5	0xbec5cd7f	-0.38633344
6	0xbc805a47	-0.015668048
7	0xbdfde0ad	-0.12396369
8	0x3d7f91c6	0.06239488
9	0x3d2e97a3	0.04262508
10	0x3e266aef	0.1625173
11	0xbe79345c	-0.2433638
12	0xbdb955a8	-0.09049541
13	0x3e133dcb	0.14379041
14	0xbed7667b	-0.42070374
15	0xbe114e31	-0.14189984
16	0x3d128ea4	0.035780564
17	0x3dc5afd2	0.09652676
18	0xbea25028	-0.3170178
19	0xbe51e2cc	-0.20496672
20	0xbddafa2f	-0.1069225
21	0xbe3aa1b2	-0.18225744
22	0xbea9f019	-0.33190992
23	0x3dcc3436	0.09970896
24	0xbdd52533	-0.10407486
25	0xbeb7ffcc	-0.35937345
26	0xbdcb3cde	-0.09923719
27	0xbd85a149	-0.06524903
28	0xbba10998	-0.0049144737
29	0x3e28a283	0.16468243
30	0xbbffb3d3	-0.007803419
31	0xbdb95084	-0.0904856
32	0x3e229455	0.15876897
33	0x3e25ebbe	0.1620321
34	0x3e056f23	0.13030677
35	0x3e3a4104	0.18188864
36	0xbe09d90b	-0.13461702
37	0x3e7ae767	0.24502335
38	0xbd44aeb2	-0.048018165
39	0x3e5b30c8	0.21405327
40	0x3dfad399	0.1224739
41	0x3dac46b2	0.084119216
42	0xbe18a71e	-0.149075
43	0x3c901736	0.017589193
44	0x3e975edd	0.29564562
45	0x3e1b3dcf	0.15160297
46	0x3dc67486	0.09690194
47	0x3d8618d8	0.06547707
48	0xbe054092	-0.13012913
49	0x3c3592d0	0.011082366
50	0x3ec98d98	0.3936584
51	0x3eb792dc	0.35854232
52	0xbcb8ff20	-0.02258259
53	0x3eac3613	0.33635005
54	0x3ea893cd	0.32925263
55	0xb98e2a00	-0.00027115643
56	0x3ec927c0	0.3928814
57	0x3e2a801c	0.16650432
58	0x3d74fc59	0.05981097
59	0xbcc1612f	-0.023605911
60	0x3db26adb	0.08711787
61	0x3d3fb9e0	0.046808124
62	0x3d97005d	0.07373116
63	0xbd494a33	-0.049143028

fc.bias f4 [2]
0	0xbe88a406	-0.2668764
1	0x3e7d5de6	0.2474285
